…
        "Name": "ReduceLROnPlateau",
        "step_size": 10,
        "gamma": 0.1,
        "Warmup_Epochs": 10,
        "Stop_LR": 150,
        "Base_LR": 0.001,
        "Final_LR": 1e-05
    },
    "EarlyStopping": {
        "Patience": 20,
        "min_delta": 0,
        "verbose": true
    }
}
===============================================================================================
Layer (type:depth-idx)                        Output Shape              Param #
===============================================================================================
Resnet101                                     [32, 297]                 --
├─ResNet: 1-1                                 [32, 2048]                --
│    └─Conv2d: 2-1                            [32, 64, 112, 112]        (9,408)
│    └─BatchNorm2d: 2-2                       [32, 64, 112, 112]        (128)
│    └─ReLU: 2-3                              [32, 64, 112, 112]        --
│    └─MaxPool2d: 2-4                         [32, 64, 56, 56]          --
│    └─Sequential: 2-5                        [32, 256, 56, 56]         --
│    │    └─Bottleneck: 3-1                   [32, 256, 56, 56]         (75,008)
│    │    └─Bottleneck: 3-2                   [32, 256, 56, 56]         (70,400)
│    │    └─Bottleneck: 3-3                   [32, 256, 56, 56]         (70,400)
│    └─Sequential: 2-6                        [32, 512, 28, 28]         --
│    │    └─Bottleneck: 3-4                   [32, 512, 28, 28]         (379,392)
│    │    └─Bottleneck: 3-5                   [32, 512, 28, 28]         (280,064)
│    │    └─Bottleneck: 3-6                   [32, 512, 28, 28]         (280,064)
│    │    └─Bottleneck: 3-7                   [32, 512, 28, 28]         (280,064)
│    └─Sequential: 2-7                        [32, 1024, 14, 14]        --
│    │    └─Bottleneck: 3-8                   [32, 1024, 14, 14]        1,512,448
│    │    └─Bottleneck: 3-9                   [32, 1024, 14, 14]        1,117,184
│    │    └─Bottleneck: 3-10                  [32, 1024, 14, 14]        1,117,184
│    │    └─Bottleneck: 3-11                  [32, 1024, 14, 14]        1,117,184
│    │    └─Bottleneck: 3-12                  [32, 1024, 14, 14]        1,117,184
│    │    └─Bottleneck: 3-13                  [32, 1024, 14, 14]        1,117,184
│    │    └─Bottleneck: 3-14                  [32, 1024, 14, 14]        1,117,184
│    │    └─Bottleneck: 3-15                  [32, 1024, 14, 14]        1,117,184
│    │    └─Bottleneck: 3-16                  [32, 1024, 14, 14]        1,117,184
│    │    └─Bottleneck: 3-17                  [32, 1024, 14, 14]        1,117,184
│    │    └─Bottleneck: 3-18                  [32, 1024, 14, 14]        1,117,184
│    │    └─Bottleneck: 3-19                  [32, 1024, 14, 14]        1,117,184
│    │    └─Bottleneck: 3-20                  [32, 1024, 14, 14]        1,117,184
│    │    └─Bottleneck: 3-21                  [32, 1024, 14, 14]        1,117,184
│    │    └─Bottleneck: 3-22                  [32, 1024, 14, 14]        1,117,184
│    │    └─Bottleneck: 3-23                  [32, 1024, 14, 14]        1,117,184
│    │    └─Bottleneck: 3-24                  [32, 1024, 14, 14]        1,117,184
│    │    └─Bottleneck: 3-25                  [32, 1024, 14, 14]        1,117,184
│    │    └─Bottleneck: 3-26                  [32, 1024, 14, 14]        1,117,184
│    │    └─Bottleneck: 3-27                  [32, 1024, 14, 14]        1,117,184
│    │    └─Bottleneck: 3-28                  [32, 1024, 14, 14]        1,117,184
│    │    └─Bottleneck: 3-29                  [32, 1024, 14, 14]        1,117,184
│    │    └─Bottleneck: 3-30                  [32, 1024, 14, 14]        1,117,184
│    └─Sequential: 2-8                        [32, 2048, 7, 7]          --
│    │    └─Bottleneck: 3-31                  [32, 2048, 7, 7]          6,039,552
│    │    └─Bottleneck: 3-32                  [32, 2048, 7, 7]          4,462,592
│    │    └─Bottleneck: 3-33                  [32, 2048, 7, 7]          4,462,592
│    └─AdaptiveAvgPool2d: 2-9                 [32, 2048, 1, 1]          --
│    └─Identity: 2-10                         [32, 2048]                --
├─Sequential: 1-2                             [32, 297]                 --
│    └─Linear: 2-11                           [32, 297]                 608,553
===============================================================================================
Total params: 43,108,713
Trainable params: 41,663,785
Non-trainable params: 1,444,928
Total mult-adds (G): 249.60
===============================================================================================
Input size (MB): 19.27
Forward/backward pass size (MB): 8310.83
Params size (MB): 172.43
Estimated Total Size (MB): 8502.53
…
