…
        "Name": "Adam",
        "lr": 0.001,
        "weight_decay": 0,
        "momentum": 0.9
    },
    "Loss_Function": "CrossEntropyLoss",
    "label_smoothing": 0,
    "Scheduler": null,
    "EarlyStopping": {
        "Patience": 50,
        "min_delta": 0,
        "verbose": true
    }
}
===============================================================================================
Layer (type:depth-idx)                        Output Shape              Param #
===============================================================================================
Resnet50                                      [32, 297]                 --
├─ResNet: 1-1                                 [32, 2048]                --
│    └─Conv2d: 2-1                            [32, 64, 112, 112]        (9,408)
│    └─BatchNorm2d: 2-2                       [32, 64, 112, 112]        (128)
│    └─ReLU: 2-3                              [32, 64, 112, 112]        --
│    └─MaxPool2d: 2-4                         [32, 64, 56, 56]          --
│    └─Sequential: 2-5                        [32, 256, 56, 56]         --
│    │    └─Bottleneck: 3-1                   [32, 256, 56, 56]         (75,008)
│    │    └─Bottleneck: 3-2                   [32, 256, 56, 56]         (70,400)
│    │    └─Bottleneck: 3-3                   [32, 256, 56, 56]         (70,400)
│    └─Sequential: 2-6                        [32, 512, 28, 28]         --
│    │    └─Bottleneck: 3-4                   [32, 512, 28, 28]         (379,392)
│    │    └─Bottleneck: 3-5                   [32, 512, 28, 28]         (280,064)
│    │    └─Bottleneck: 3-6                   [32, 512, 28, 28]         (280,064)
│    │    └─Bottleneck: 3-7                   [32, 512, 28, 28]         (280,064)
│    └─Sequential: 2-7                        [32, 1024, 14, 14]        --
│    │    └─Bottleneck: 3-8                   [32, 1024, 14, 14]        (1,512,448)
│    │    └─Bottleneck: 3-9                   [32, 1024, 14, 14]        (1,117,184)
│    │    └─Bottleneck: 3-10                  [32, 1024, 14, 14]        (1,117,184)
│    │    └─Bottleneck: 3-11                  [32, 1024, 14, 14]        (1,117,184)
│    │    └─Bottleneck: 3-12                  [32, 1024, 14, 14]        (1,117,184)
│    │    └─Bottleneck: 3-13                  [32, 1024, 14, 14]        (1,117,184)
│    └─Sequential: 2-8                        [32, 2048, 7, 7]          --
│    │    └─Bottleneck: 3-14                  [32, 2048, 7, 7]          (6,039,552)
│    │    └─Bottleneck: 3-15                  [32, 2048, 7, 7]          (4,462,592)
│    │    └─Bottleneck: 3-16                  [32, 2048, 7, 7]          (4,462,592)
│    └─AdaptiveAvgPool2d: 2-9                 [32, 2048, 1, 1]          --
│    └─Identity: 2-10                         [32, 2048]                --
├─Sequential: 1-2                             [32, 297]                 --
│    └─Linear: 2-11                           [32, 297]                 608,553
===============================================================================================
Total params: 24,116,585
Trainable params: 608,553
Non-trainable params: 23,508,032
Total mult-adds (G): 130.81
===============================================================================================
Input size (MB): 19.27
Forward/backward pass size (MB): 5690.44
Params size (MB): 96.47
Estimated Total Size (MB): 5806.17
…
