…
        "gamma": 0.1,
        "Warmup_Epochs": 10,
        "Stop_LR": 150,
        "Base_LR": 0.001,
        "Final_LR": 1e-05
    },
    "EarlyStopping": {
        "Patience": 20,
        "min_delta": 0,
        "verbose": true
    }
}
==============================================================================================================
Layer (type:depth-idx)                                       Output Shape              Param #
==============================================================================================================
EfficientNetB7                                               [32, 297]                 --
├─EfficientNet: 1-1                                          [32, 2560]                --
│    └─Sequential: 2-1                                       [32, 2560, 7, 7]          --
│    │    └─Conv2dNormActivation: 3-1                        [32, 64, 112, 112]        (1,856)
│    │    └─Sequential: 3-2                                  [32, 32, 112, 112]        (10,920)
│    │    └─Sequential: 3-3                                  [32, 48, 56, 56]          (253,424)
│    │    └─Sequential: 3-4                                  [32, 80, 28, 28]          (716,068)
│    │    └─Sequential: 3-5                                  [32, 160, 14, 14]         (3,721,660)
│    │    └─Sequential: 3-6                                  [32, 224, 14, 14]         (7,615,904)
│    │    └─Sequential: 3-7                                  [32, 384, 7, 7]           (28,390,712)
│    │    └─Sequential: 3-8                                  [32, 640, 7, 7]           21,432,896
│    │    └─Conv2dNormActivation: 3-9                        [32, 2560, 7, 7]          1,643,520
│    └─AdaptiveAvgPool2d: 2-2                                [32, 2560, 1, 1]          --
│    └─Identity: 2-3                                         [32, 2560]                --
├─Sequential: 1-2                                            [32, 297]                 --
│    └─Linear: 2-4                                           [32, 297]                 760,617
==============================================================================================================
Total params: 64,547,577
Trainable params: 23,837,033
Non-trainable params: 40,710,544
Total mult-adds (G): 165.39
==============================================================================================================
Input size (MB): 19.27
Forward/backward pass size (MB): 20508.29
…
